…
7849, 60, 80, 3)
(77849, 60, 80, 3)
(77849, 6)
(77849, 1)
Model: "model"
__________________________________________________________________________________________________
Layer (type)                    Output Shape         Param #     Connected to                     
==================================================================================================
input_1 (InputLayer)            [(None, 60, 80, 3)]  0                                            
__________________________________________________________________________________________________
conv2d (Conv2D)                 (None, 60, 80, 8)    216         input_1[0][0]                    
__________________________________________________________________________________________________
batch_normalization (BatchNorma (None, 60, 80, 8)    32          conv2d[0][0]                     
__________________________________________________________________________________________________
activation (Activation)         (None, 60, 80, 8)    0           batch_normalization[0][0]        
__________________________________________________________________________________________________
conv2d_1 (Conv2D)               (None, 60, 80, 8)    576         activation[0][0]                 
__________________________________________________________________________________________________
batch_normalization_1 (BatchNor (None, 60, 80, 8)    32          conv2d_1[0][0]                   
__________________________________________________________________________________________________
activation_1 (Activation)       (None, 60, 80, 8)    0           batch_normalization_1[0][0]      
__________________________________________________________________________________________________
average_pooling2d (AveragePooli (None, 30, 40, 8)    0           activation_1[0][0]               
__________________________________________________________________________________________________
conv2d_2 (Conv2D)               (None, 30, 40, 16)   1152        average_pooling2d[0][0]          
__________________________________________________________________________________________________
batch_normalization_2 (BatchNor (None, 30, 40, 16)   64          conv2d_2[0][0]                   
__________________________________________________________________________________________________
activation_3 (Activation)       (None, 30, 40, 16)   0           batch_normalization_2[0][0]      
__________________________________________________________________________________________________
conv2d_3 (Conv2D)               (None, 30, 40, 16)   2304        activation_3[0][0]               
__________________________________________________________________________________________________
batch_normalization_3 (BatchNor (None, 30, 40, 16)   64          conv2d_3[0][0]                   
__________________________________________________________________________________________________
activation_4 (Activation)       (None, 30, 40, 16)   0           batch_normalization_3[0][0]      
__________________________________________________________________________________________________
average_pooling2d_1 (AveragePoo (None, 15, 20, 16)   0           activation_4[0][0]               
__________________________________________________________________________________________________
conv2d_4 (Conv2D)               (None, 15, 20, 32)   4608        average_pooling2d_1[0][0]        
__________________________________________________________________________________________________
batch_normalization_4 (BatchNor (None, 15, 20, 32)   128         conv2d_4[0][0]                   
__________________________________________________________________________________________________
activation_6 (Activation)       (None, 15, 20, 32)   0           batch_normalization_4[0][0]      
__________________________________________________________________________________________________
conv2d_5 (Conv2D)               (None, 15, 20, 32)   9216        activation_6[0][0]               
__________________________________________________________________________________________________
batch_normalization_5 (BatchNor (None, 15, 20, 32)   128         conv2d_5[0][0]                   
__________________________________________________________________________________________________
activation_7 (Activation)       (None, 15, 20, 32)   0           batch_normalization_5[0][0]      
__________________________________________________________________________________________________
average_pooling2d_2 (AveragePoo (None, 7, 10, 32)    0           activation_7[0][0]               
__________________________________________________________________________________________________
conv2d_6 (Conv2D)               (None, 7, 10, 64)    18432       average_pooling2d_2[0][0]        
__________________________________________________________________________________________________
batch_normalization_6 (BatchNor (None, 7, 10, 64)    256         conv2d_6[0][0]                   
__________________________________________________________________________________________________
activation_8 (Activation)       (None, 7, 10, 64)    0           batch_normalization_6[0][0]      
__________________________________________________________________________________________________
conv2d_7 (Conv2D)               (None, 7, 10, 64)    36864       activation_8[0][0]               
__________________________________________________________________________________________________
batch_normalization_7 (BatchNor (None, 7, 10, 64)    256         conv2d_7[0][0]                   
__________________________________________________________________________________________________
activation_9 (Activation)       (None, 7, 10, 64)    0           batch_normalization_7[0][0]      
__________________________________________________________________________________________________
input_2 (InputLayer)            [(None, 6)]          0                                            
__________________________________________________________________________________________________
average_pooling2d_3 (AveragePoo (None, 3, 5, 64)     0           activation_9[0][0]               
__________________________________________________________________________________________________
dense (Dense)                   (None, 100)          700         input_2[0][0]                    
__________________________________________________________________________________________________
flatten (Flatten)               (None, 960)          0           average_pooling2d_3[0][0]        
__________________________________________________________________________________________________
activation_2 (Activation)       (None, 100)          0           dense[0][0]                      
__________________________________________________________________________________________________
dense_2 (Dense)                 (None, 100)          96100       flatten[0][0]                    
__________________________________________________________________________________________________
dense_1 (Dense)                 (None, 100)          10100       activation_2[0][0]               
__________________________________________________________________________________________________
activation_10 (Activation)      (None, 100)          0           dense_2[0][0]                    
__________________________________________________________________________________________________
activation_5 (Activation)       (None, 100)          0           dense_1[0][0]                    
__________________________________________________________________________________________________
concatenate (Concatenate)       (None, 200)          0           activation_10[0][0]              
                                                                 activation_5[0][0]               
__________________________________________________________________________________________________
dense_3 (Dense)                 (None, 128)          25728       concatenate[0][0]                
__________________________________________________________________________________________________
activation_11 (Activation)      (None, 128)          0           dense_3[0][0]                    
__________________________________________________________________________________________________
dense_4 (Dense)                 (None, 1)            129         activation_11[0][0]              
__________________________________________________________________________________________________
thetaz_out (Activation)         (None, 1)            0           dense_4[0][0]                    
==================================================================================================
Total params: 207,085
Trainable params: 206,605
Non-trainable params: 480
__________________________________________________________________________________________________
2.2.0
Epoch 0 Time:  21:19:40
Mean absolute error at    0 is: 4.17
Epoch 1 Time:  21:20:58
…
